model/photopicker_rf_lee_2700.sav-param.npz (npz, 68950 bytes, 3 tensors)

Mean f8 [1, 36]
0	0x3f5e34534d37f0eb	0.0018435300343063131
1	0x3f609dfba52ffd46	0.0020284571596672933
2	0x3f706fa914dddb4d	0.0040127377268309285
3	0x3f6b9d00a0b56e2c	0.00337076304064767
4	0x3f686d5167f7731b	0.002981814380957804
5	0x3f57d18e35a51dc7	0.0014537705197471427
6	0x3f561f38007c23ff	0.001350216569280471
7	0x3f365962ac4e6231	0.0003410211468746509
8	0x3f548feace0aeb6d	0.001255015660872795
9	0x3f4b8939cda1a76c	0.000840333198778282
10	0x3f39568f277c3194	0.000386629056706744
11	0xbf13b8bfe71fb1e9	-7.523223192124725e-05
12	0x3f61171ab23b55fc	0.0020862122927194342
13	0x3f41c88d3a0681d9	0.0005427064498242886
14	0x3f53fe5dffb8dadb	0.0012203138311527781
15	0x3f50b7b0c8019dc2	0.0010203577403674479
16	0x3f50701156746227	0.0010032815278632286
17	0x3f3ea24f02eeedf8	0.0004674380206172997
18	0x3f373dc83fbba08d	0.00035463465586228136
19	0xbf58d18ea60dc4e7	-0.0015148060849379753
20	0xbf30b0a0cd9232c5	-0.000254668482349268
21	0xbf44bcf5819a5f8f	-0.0006328772316974584
22	0xbf3e15e885be6f07	-0.00045906950776396265
23	0xbf50c1c828327b23	-0.0010227636965180551
24	0xbf3e3e1d71c789ed	-0.0004614660154215456
25	0xbf5cb2d1f706a3a5	-0.0017516184271732873
26	0x3f31dbc888c40967	0.0002724995217847831
27	0x3f1305c7a8d8b60c	7.256537556862163e-05
28	0xbf2d925efe2eaf28	-0.00022561463910386018
29	0xbf5b37031419d34b	-0.0016610651076948864
30	0xbf6f140e517a7eec	-0.003793743100530258
31	0xbf6e82ea339b73bf	-0.00372453444002338
32	0xbf5d2ef94f6d6662	-0.0017812189741647434
33	0xbf5fd7cd96344c00	-0.0019435413058246365
34	0xbf628129d99b86f1	-0.0022588555701624703
35	0xbf75e2c6872e98bb	-0.005343223095144174

Patch f8 [36, 36]
0	0x3ff877639059eefe	1.5291476858828328
1	0xbfd22cf808bb43fb	-0.2839946828144659
2	0xbfa8c8b2063a3fdd	-0.04840618444461573
3	0xbf811f6472e70f33	-0.008360657459781961
4	0x3f819e2b038db7e0	0.008602462812373035
5	0x3f7fa152e222d658	0.007722209704458992
6	0xbfd7aedcd5df67f6	-0.3700477684593574
7	0x3fb15fae3a91b84f	0.06786621980583728
8	0x3fbafca26c732e13	0.10541739604666871
9	0x3fbb143d2ec052c9	0.105777572549708
10	0x3fbafe4a1863a82a	0.10544264884416124
11	0x3fbaa29012d24607	0.10404301127916692
12	0xbfb022bc2002db2a	-0.06303001195452099
13	0x3fbcdb16a7185f2a	0.11271802501175601
14	0x3fb7fb9440e824a0	0.09368254265440834
15	0x3fb74fcb2e0747e5	0.0910613047956584
16	0x3fb72840946e5ce2	0.09045795081907529
17	0x3fb795260b223ed5	0.09211957713909709
18	0xbf85a3294d1af997	-0.010565111795014554
19	0x3fbc55e3b932181f	0.11068557044390602
20	0x3fb721cedbf1979b	0.09035961980552402
21	0x3fb6939f8a946a9c	0.08819005139631958
22	0x3fb6b0fb4948f5c7	0.0886380247038324
23	0x3fb6cbee864b7ca8	0.08904925135310526
24	0x3f84d1b66768bf39	0.01016561987952934
25	0x3fbc34b0cdf12491	0.11017899539833055
26	0x3fb76fc04631510e	0.09154893602073264
27	0x3fb700839ace24be	0.08985159425187114
28	0x3fb6e154ae96dae9	0.08937577497895756
29	0x3fb6b92d0de1430a	0.08876306141725024
30	0x3f903f2a24ca9fac	0.01586595391805161
31	0x3fbc67b1f4d639f2	0.11095726230107752
32	0x3fb7c2303ecf9160	0.092806830725356
33	0x3fb72b3b53244d94	0.0905034139616901
34	0x3fb6a234fb2bb558	0.08841258174989741
35	0x3fb65763334526b6	0.08727092744552575
36	0xbfd22cf808bb43fc	-0.28399468281446594
37	0x3ffc65700fb23f57	1.7747650731216333
38	0xbfd126d957733b9e	-0.2679961542134438
39	0xbfa4ce4165ae16aa	-0.0406361042615065
40	0xbf74a2d33ceda6b7	-0.00503809466213461
41	0x3f7ea804c2c3410f	0.007484453770487911
42	0x3fa725307620b1da	0.04520560686100668
43	0xbfd3893a6561e5fe	-0.30525073910357026
44	0x3fac3c8b7abca59e	0.05514942048314285
45	0x3fb9d8d486d0ec24	0.10096481601151247
46	0x3fba6a971ef0ac90	0.10318893914579719
47	0x3fbac6b54ddb1796	0.10459454680230204
48	0x3fbbb0e2e6a720cc	0.10816782122776941
49	0xbfa800ecc005be0a	-0.0468820557024366
50	0x3fba1212dc44bf5e	0.10183828237199807
51	0x3fb6d17c8a088207	0.08913401002838138
52	0x3fb6a32aef8d69d4	0.08842724178740663
53	0x3fb73345708eaea6	0.09062608716947781
54	0x3fbc4f36ed76ada2	0.11058371827555516
55	0xbf7eb05f6016744c	-0.007492420730526094
56	0x3fb9f5f1026af3dd	0.10140901860263747
57	0x3fb630c7817652c4	0.08668181334207775
58	0x3fb61d32e66f39fd	0.08638303876725924
59	0x3fb6bd153f4e76e0	0.08882267757004625
60	0x3fbcb3c8bfb5d0ec	0.1121182888071563
61	0x3f81bedf7b6992ca	0.00866484256148094
62	0x3fba427a99c0da62	0.10257688764327491
63	0x3fb6cfd03de92495	0.08910848151676228
64	0x3fb662cdb3abb61e	0.08744512211315977
65	0x3fb6903e0393f8df	0.0881384619460479
66	0x3fbc4dc396711231	0.11056158469097778
67	0x3f8584f66a99f1b1	0.01050751221486554
68	0x3fb9ebe56fdf6559	0.10125574094071989
69	0x3fb6dc4fa89ec615	0.08929918162063928
70	0x3fb68480326625b2	0.08795930128521581
71	0x3fb6a8534a003e27	0.0885059409777048
72	0xbfa8c8b2063a3fd7	-0.04840618444461569
73	0xbfd126d957733b9d	-0.26799615421344375
74	0x3ffcfc823c4e99f9	1.8116476398223524
75	0xbfd0f36cd47a0c4c	-0.26485749005968695
76	0xbfa55d480a46e60a	-0.04172730565501233
77	0xbf8236e2093001e5	-0.008893743424779063
78	0x3fb97f5f05ac4a9a	0.09959977997304251
79	0x3fa75a4a42e482e9	0.04561073366699537
80	0xbfd2dcf0d93bf1f3	-0.2947351571490621
81	0x3faa963124e0be4b	0.05192712378663752
82	0x3fb91bd048a320ad	0.09808065198297085
83	0x3fba90d320847328	0.10377234977609062
84	0x3fb7603b956dea23	0.0913121452157744
85	0x3fb9c6976918518a	0.10068651500507123
86	0xbfa484cc8bbf33da	-0.040075676020570675
87	0x3fb9fa53622bcc3a	0.10147591730837827
88	0x3fb693e1cca574aa	0.08819400068519437
89	0x3fb70b47c75d3817	0.09001587502754692
90	0x3fb70e00f940fa00	0.09005743108080111
91	0x3fba2a73548bef0d	0.10221024335981728
92	0xbf5daa9e183a9027	-0.0018106979268077779
93	0x3fba4f4e60dc75cd	0.10277261605047912
94	0x3fb65f40ec32c221	0.08739095465239945
95	0x3fb6850b512b5131	0.08796759349508389
96	0x3fb79b31b49a18cc	0.09221182498194763
97	0x3fba282a6a50f278	0.10217537971124979
98	0x3f8ee2f1a7490498	0.015081298749580349
99	0x3fb9dcb93af38dcb	0.10102422417872174
100	0x3fb6ce3b0a9c951f	0.08908432969163414
101	0x3fb69c3dab246842	0.08832154682423357
102	0x3fb81c18f5202796	0.09417873367797677
103	0x3fb9b6f090760534	0.10044768835907264
104	0x3f900f2f0d285840	0.015682921579433406
105	0x3fb994362fe61f80	0.09991778058440381
106	0x3fb7056b73f405b2	0.08992644863976443
107	0x3fb70aa77df7ff41	0.09000632119568498
108	0xbf811f6472e70f40	-0.008360657459781984
109	0xbfa4ce4165ae16a5	-0.04063610426150647
110	0xbfd0f36cd47a0c4d	-0.264857490059687
111	0x3ffd044d1ba124ff	1.8135500983501627
112	0xbfd12362c506ffb9	-0.26778477898551106
113	0xbfaa4f0f54b19a16	-0.05138442906245559
114	0x3fbab54991e8c03f	0.1043287259315102
115	0x3fb996c091d62f3b	0.09995654640641487
116	0x3fa92b7a9673fda1	0.049159842363219804
117	0xbfd2ce4534447630	-0.293839741747294
118	0x3fa82de64536e974	0.04722518534568368
119	0x3fb9384a45edbf3b	0.09851516921275742
120	0x3fb70888c9d9ae14	0.08997397354112763
121	0x3fb673492466d229	0.08769662035667437
122	0x3fb9e5b5d8c3c23e	0.10116135160547743
123	0xbfa41b3349c021c1	-0.039270022156475466
124	0x3fb9d75d8b6d959e	0.10094246534352755
125	0x3fb75ade904436f0	0.09123030683641864
126	0x3fb6a7b4e778aa20	0.08849650050311952
127	0x3fb6376238e85622	0.08678258790345031
128	0x3fba567690e00678	0.10288182293882098
129	0xbf4bdc9a1f959d06	-0.0008502724223661557
130	0x3fb9e9ad74f07015	0.10122188668214023
131	0x3fb6bce11a174fe0	0.08881956946362335
132	0x3fb6c4a9af255f4d	0.08893833662056956
133	0x3fb6ba67cb812733	0.08878182142612161
134	0x3fba11687e2a9e3c	0.10182812767254118
135	0x3f8f6b5c3a404545	0.01534149220245474
136	0x3fb9f1919e044852	0.10134229762869154
137	0x3fb75dabb18c4229	0.09127305111565732
138	0x3fb722ecd86cd50d	0.09037666591469336
139	0x3fb722ed94924c47	0.09037670972092925
140	0x3fb977aa445925fe	0.09948219460161309
141	0x3f91fff37adba4c0	0.017577938436180274
142	0x3fb9816be5e69ce6	0.09963106501401206
143	0x3fb7a57b5cda9a6f	0.09236880318585759
144	0x3f819e2b038db7fa	0.00860246281237308
145	0xbf74a2d33ceda6ea	-0.005038094662134654
146	0xbfa55d480a46e60d	-0.04172730565501235
147	0xbfd12362c506ffb8	-0.267784778985511
148	0x3ffc82efcef66cc4	1.7819669804073763
149	0xbfd29056bebed1fd	-0.290059744143292
150	0x3fbb3bfc29157298	0.1063840484907338
151	0x3fba63f8801a7632	0.10308793189548096
152	0x3fb9d63862ddfe97	0.10092499173878831
153	0x3fa9fec0bb0fa7a8	0.05077173503362015
154	0xbfd315bab1c454ba	-0.2982012496953065
155	0x3fa65047072142c4	0.04358121835742204
156	0x3fb7044aa463d8a6	0.0899092341749986
157	0x3fb6594d834472c3	0.08730015234727788
158	0x3fb6d41850245524	0.08917381245222039
159	0x3fb9cd62700918e8	0.10079016909830651
160	0xbfa48ba2226347c5	-0.040127817819338975
161	0x3fb9e21e8475148a	0.10110655530759707
162	0x3fb68ca9c8e8676a	0.08808385043121594
163	0x3fb630911cfc4215	0.08667857129717789
164	0x3fb64e361eb8e818	0.08713091135078377
165	0x3fba0e6504b27fad	0.10178214420966354
166	0xbf59db84f201d445	-0.001578216390069957
167	0x3fbacba8a6e1ff02	0.10467008661543889
168	0x3fb69a4ae2aebfca	0.0882918170379973
169	0x3fb66bdc9314d57a	0.08758333769659102
170	0x3fb695d6cd5041a6	0.08822386276756919
171	0x3fba06c90e2188b4	0.10166603655810286
172	0x3f8cdafd8a4434c7	0.014089566022926893
173	0x3fbb171b2d4927a7	0.10582132201775939
174	0x3fb6b9f39991fb60	0.0887748956611012
175	0x3fb676da11458f33	0.08775103494332086
176	0x3fb6fa2f2d223e21	0.08975500919245195
177	0x3fb9b979b2a51980	0.10048637973259211
178	0x3f92afff854a36ec	0.01824950457608214
179	0x3fbaaa0c9a2bc2ca	0.10415724529208173
180	0x3f7fa152e222d658	0.007722209704458992
181	0x3f7ea804c2c34106	0.007484453770487903
182	0xbf8236e2093001f9	-0.008893743424779098
183	0xbfaa4f0f54b19a15	-0.051384429062455585
184	0xbfd29056bebed1fd	-0.290059744143292
185	0x3ff8ab9899eadea4	1.5418935787583132
186	0x3fbaf54be0f7ef57	0.10530542604823033
187	0x3fbb12da398b0994	0.10575641541348652
188	0x3fbae47f930e7209	0.10504910793537915
189	0x3fba7f3818a2034f	0.10350370980633027
190	0x3faf32ecc70cdbd1	0.06093540124714248
191	0xbfd732675866a499	-0.36245139725594694
192	0x3fb75c1fa6025e05	0.0912494449897779
193	0x3fb73e69416f0553	0.09079606864454108
194	0x3fb6d98f72431888	0.08925720729448205
195	0x3fb7ace9ab9f4387	0.0924821895598723
196	0x3fbaf8890d0cd39c	0.10535484856229832
197	0xbfacd263d4201e85	-0.05629264797613324
198	0x3fb7370b9a58b13c	0.09068367498611435
199	0x3fb6ce935a3745e8	0.08908959343468548
200	0x3fb6b448eed891b0	0.08868842917633546
201	0x3fb7496f98f93eb4	0.09096429333407735
202	0x3fbb251e75fe069a	0.10603514080687618
203	0xbf711bc6cb096e67	-0.004176880393596961
204	0x3fb657b2df8d637f	0.08727567632503329
205	0x3fb695e545b1cab1	0.08822472526098114
206	0x3fb6c68b809e5f0e	0.08896705522635903
207	0x3fb74836a1982365	0.09094563908742044
208	0x3fbac75a8cf08835	0.10460439625652003
209	0x3f92fe0ff9f3776e	0.018547296171952103
210	0x3fb620b22a2cdf77	0.08643640069646873
211	0x3fb6d75c53cfe460	0.08922364278977701
212	0x3fb7056ee9a7c78f	0.08992665485837235
213	0x3fb77ef103b45892	0.09178072300378151
214	0x3fbac7537a356974	0.10460397466287025
215	0x3f974b8be8e32844	0.02274912461215474
216	0xbfd7aedcd5df67f6	-0.3700477684593574
217	0x3fa725307620b1e3	0.04520560686100674
218	0x3fb97f5f05ac4a98	0.09959977997304248
219	0x3fbab54991e8c03d	0.10432872593151017
220	0x3fbb3bfc29157296	0.10638404849073377
221	0x3fbaf54be0f7ef59	0.10530542604823036
222	0x3ffd8a6a3ff2fba6	1.846292733956696
223	0xbfc9537d3522cb3a	-0.19786038488890673
224	0xbf93b15ba0049d9e	-0.019231254235959498
225	0x3f72af3932253c19	0.004561637326630418
226	0x3f8e053c85434e28	0.014658425156461055
227	0x3f8cc41bb98a9475	0.014045921897670713
228	0xbfd62539e1fdd729	-0.3460221011113043
229	0x3fa9c6ec92d86d09	0.050345795560327096
230	0x3fb748cf77a670e7	0.09095474883219233
231	0x3fb7fdcf035e7a2e	0.09371656257869951
232	0x3fb8393951e8aeeb	0.09462316751222104
233	0x3fb7c414d6661d06	0.09283571466777482
234	0xbfaac337948c4bb6	-0.05227063835459182
235	0x3fbb35c9a1735c2a	0.1062894839445653
236	0x3fb6d2d5b0e49cfc	0.08915458267857795
237	0x3fb66c31f0968856	0.08758842586260704
238	0x3fb67407c9afd784	0.08770798372265004
239	0x3fb691756cb8623c	0.08815702347090676
240	0xbf734ab421764293	-0.004709914813603294
241	0x3fbb482541d4866b	0.10656960351163895
242	0x3fb6049bdb0d736c	0.08600782487833464
243	0x3fb5e529ff0ad244	0.08552801586740438
244	0x3fb6163c9859018e	0.08627680510926991
245	0x3fb645250841ddd4	0.08699256373971959
246	0x3f857b0dd5d0cc3a	0.010488613212237142
247	0x3fbc8a3276d0e67a	0.11148372078687344
248	0x3fb78d1019c68a1b	0.0919961989334656
249	0x3fb6bfcc7521c04f	0.08886411533035353
250	0x3fb6b4a9d18c88e7	0.0886942040056372
251	0x3fb677966de7f6b4	0.08776226218466371
252	0x3fb15fae3a91b84f	0.06786621980583728
253	0xbfd3893a6561e5fe	-0.30525073910357026
254	0x3fa75a4a42e482e4	0.045610733666995334
255	0x3fb996c091d62f3b	0.09995654640641487

centroids f8 [200, 36]
0	0x3f70c68def126771	0.00409560625953441
1	0xbf7df4a29b0f455c	-0.007313380411646388
2	0xbf7fe751148aab06	-0.00778896018952469
3	0xbf4dfa55ef651d35	-0.0009148521046790427
4	0xbf75e38f0cfc996a	-0.005343970100318488
5	0x3f7073a39a0adf38	0.004016532010318312
6	0x3f60cd524eebd2df	0.0020510299285610846
7	0xbf693a5f3455c080	-0.0030795916997519712
8	0xbf4ee0e887ae8d98	-0.0009423385048318743
9	0x3f76bd990eb1d605	0.005551908379052066
10	0xbf38864392d62c65	-0.00037421369310015044
11	0x3f80766f9759ebe4	0.008038398558019418
12	0xbf6aab4efd622d97	-0.00325551440898204
13	0xbf645a8cb4ff958c	-0.002484583681495683
14	0x3f3a6c4447bb58a3	0.000403181714984222
15	0x3f7799c3f8d8118a	0.005761876598175406
16	0xbf5d955ba90c5dd8	-0.0018056292648845809
17	0x3f7d62dd6ef72a73	0.007174363111924198
18	0xbf7d26829c5fdf8d	-0.007116804312310776
19	0xbf4eee96e3d68acd	-0.0009439694182911907
20	0x3f42cd59bd481826	0.0005737960987637388
21	0x3f78e68bcf720318	0.006079240926852213
22	0xbf659bf65f776061	-0.002637845227337052
23	0x3f7aec9ef17427fb	0.006573315498153316
24	0xbf84f71dd47a0792	-0.010236962363027211
25	0xbf632c10f7142ed1	-0.0023403483725184878
26	0xbf5b68bce4a7d02e	-0.0016729206714645273
27	0x3f5f56bcff5d2118	0.0019127698592048045
28	0xbf7819a153837fe6	-0.00588381784493206
29	0x3f7115a08f2787ed	0.004171015915263238
30	0xbf75534c9aa7df17	-0.005206393465861734
31	0x3f5b3a0328792671	0.001661780437546414
32	0x3f5db88b26ebacc2	0.0018140181452348946
33	0x3f6ebbe564c18c47	0.0037517052024198835
34	0xbf6a363038eb23a9	-0.003199667152646819
35	0x3f82400c458cf636	0.008911224243656962
36	0xbfe2838ecf7887b4	-0.5785593082584826
37	0xbfe2c60f94749efb	-0.5866773509523847
38	0xbfe316be84f5aa04	-0.59652639359166
39	0xbfe3583929606696	-0.6045194442878763
40	0xbfe3b7c4f41f7833	-0.6161827819848952
41	0xbfe426b104ea87a3	-0.6297230812090117
42	0xbfd62ca981788f4a	-0.346475960194074
43	0xbfd66218e7d5cd13	-0.34973738327171694
44	0xbfd6e7339f64c8b1	-0.3578614288882234
45	0xbfd77df3c6a63cd0	-0.36706251525261013
46	0xbfd7f79d278efaf8	-0.3744881521524088
47	0xbfd922ac727399ac	-0.39274130989943035
48	0xbfb41a0608635397	-0.07852208809647575
49	0xbfb7b7ef10e22ab6	-0.09265035783952666
50	0xbfba7b10fa557d99	-0.10344034301441808
51	0xbfbcc509d44dcb54	-0.11238156731796539
52	0xbfbe9fd6da960d45	-0.1196264537484711
53	0xbfbeabd0336a229a	-0.11980916266669298
54	0x3fc724385e33ce74	0.18079285239911125
55	0x3fc3d3319761b505	0.15488262073214557
56	0x3fc256c24d02c225	0.14327267418185943
57	0x3fc16e397ed1c9fa	0.1361762875781805
58	0x3fc10aa8bfcfc08f	0.13313779226109942
59	0x3fc2fed34555b1a8	0.14840165029035046
60	0x3fda16467260eac2	0.4076095692613927
61	0x3fd7defbd601ff4f	0.3729848470611516
62	0x3fd70fe99dbe46c4	0.3603462257825465
63	0x3fd6dd0949a68933	0.35724098389086406
64	0x3fd6e77a9f04ff9b	0.35787835625887404
65	0x3fd8d544b8ea2e1c	0.38801687295992493
66	0x3fe2a2f5943dbe48	0.5823924918494834
67	0x3fe1612c7322ff41	0.5431120156062904
68	0x3fe0f66b13155771	0.5300803539964659
69	0x3fe0fed23da51cde	0.5311061100009302
70	0x3fe11465cf73026e	0.5337399532073286
71	0x3fe21b24c1aac5d3	0.5658134253082444
72	0x3fe0e664bffd0145	0.5281242131968972
73	0x3fdfec7d6e78e280	0.4988092020826471
74	0x3fdf135c49cbe353	0.48555667120631546
75	0x3fdf7cf441273f86	0.492001594187052
76	0x3fe003efed783c4e	0.5004806173400398
77	0x3fe0fbdd34ba7478	0.530745127663649
78	0x3fdc2f841a92f813	0.4404001483452486
79	0x3fda826b15c8c400	0.414210101388619
80	0x3fda0bbda070da5c	0.40696659725236883
81	0x3fda1420940c1c79	0.40747847039933266
82	0x3fda5b02ef1f4010	0.41180489875569126
83	0x3fdc090266a57c49	0.4380498888403435
84	0x3fc82f39df827907	0.18894122518117504
85	0x3fc695b2e4d0e478	0.1764434449449117
86	0x3fc6a0dbb3b17a6d	0.17678400301061306
87	0x3fc676a19338f714	0.1754953354701959
88	0x3fc5df5e8557b242	0.17087918768756266
89	0x3fc7689d9c189c4d	0.18288011667138662
90	0xbfc1a0db7b9adaad	-0.1377214768924281
91	0xbfc15706a2282372	-0.13546832006275228
92	0xbfc14599dec3af3e	-0.13493655564468016
93	0xbfc1747908f33b78	-0.13636696755426292
94	0xbfc1f59d19396d2e	-0.14030803424507482
95	0xbfc2b2c8051b7e5c	-0.14608097314247714
96	0xbfd9dbcf51397f99	-0.40404112751093063
97	0xbfd91260d7ac9308	-0.3917467218582691
98	0xbfd8e7bbac8c8b7c	-0.38914386606682405
99	0xbfd8ee87d43f0b00	-0.3895587513654135
100	0xbfd9859579bf797d	-0.39877831353614807
101	0xbfdab5be35b5c288	-0.41734271283261437
102	0xbfe263c09c4ebf40	-0.5746768048174786
103	0xbfe1f23943caeaa3	-0.5608183216166548
104	0xbfe1d02ad8a3378b	-0.5566610556795565
105	0xbfe1da8aa59dead8	-0.5579274401382817
106	0xbfe22c8573e430df	-0.5679347289565405
107	0xbfe2c4ecbf99cda6	-0.5865386717036258
108	0x3fbdb242d631c10c	0.116001298230689
109	0x3fafd53cb44ae143	0.06217374516330889
110	0x3fa202e92aad7967	0.035178457698509295
111	0x3f9d7ec6911a84d6	0.028803923231525662
112	0xbfb27295220c4314	-0.07206089097259066
113	0xbfcca22d02800637	-0.22369921323847716
114	0x3fbda546642549af	0.11580314583742422
115	0x3fb52c86111e96ec	0.08271062772709187
116	0x3fb07706222d0e0f	0.06431616148352524
117	0x3faa4dd4afb46f33	0.051375051925985814
118	0xbfb3eb9d1c5098e4	-0.07781392995147801
119	0xbfcfbc0e40ca5729	-0.24792650378793127
120	0x3fbc578420a69898	0.11071039006364669
121	0x3fb8a7f611fdb16d	0.09631288470490569
122	0x3fb562cc40d6dbf2	0.08353878577223364
123	0x3fb09debf4318fd5	0.064909693830088
124	0xbfb72aef319102bc	-0.0904988761913143
125	0xbfd1bf5f361181f4	-0.27730541496387606
126	0x3fb91d06e2ddeb28	0.09809916533224039
127	0x3fba49dab91adc2c	0.10268942851222168
128	0x3fb906cebf656b32	0.09776012585409147
129	0x3fb402869b650937	0.07816354078116637
130	0xbfb6d359d8d6ecc2	-0.08916245979246454
131	0xbfd1a51a4665ec73	-0.27570206522768287
132	0x3fb4b0736a123dea	0.08081742610578826
133	0x3fb8107ffcfbcd33	0.09400176931722086
134	0x3fb8548fcd8ffc04	0.09504030960668791
135	0x3fb35dd1126bf860	0.07565027904272048
136	0xbfb37b20dbfe2469	-0.07609753962437228
137	0xbfd074a4f78361d9	-0.2571194092866143
138	0x3fb2a153d156ff7a	0.07277416096530756
139	0x3fb66248b9c58b44	0.08743719611588313
140	0x3fb6d5a97b9dc07e	0.08919772403692325
141	0x3fb2bea794c6065f	0.07322165853659034
142	0xbfa9b25c5fce30ef	-0.05018891019344262
143	0xbfcc0bda7787f927	-0.21911173664552416
144	0x3fb7e724796e0223	0.0933707043132093
145	0x3fac027a86403c1e	0.054706410301257544
146	0x3fa9ee3c1d67f7f4	0.050645712461104525
147	0x3fb14affc66ff11d	0.06755064577732069
148	0x3fb2983d3d405ce1	0.0726354860820382
149	0x3fbb8da1b592895d	0.10762987788124208
150	0x3fbb4d391a761d7c	0.10664708038358656
151	0x3fb4afe3f0c9234f	0.08080887440258987
152	0x3fb54d1ac207a042	0.08320777165465734
153	0x3fb9e30e8da2b742	0.10112086255932431
154	0x3fb882a56cda00fb	0.09574350268849578
155	0x3fbe55edfdeeffa2	0.11849868249464504
156	0x3fb4215ca9d6b4d8	0.07863406321003497
157	0x3fb2b7eaffa4539f	0.07311886540658329
158	0x3fb626b2c25d5039	0.0865279888651579
159	0x3fbb7ae8f42a9938	0.10734420739263306
160	0x3fb73eb0a25c0bd4	0.09080032314163528
161	0x3fbaa823c458f7a2	0.1041281084407886
162	0x3f8a8dc4d3b769ef	0.012965715132783521
163	0x3f930b6bc906b6d0	0.018598255295436072
164	0x3fa2505f6e368b21	0.03576944561361573
165	0x3fad0c0caa5a3538	0.05673255519387016
166	0x3fa171ac1221f12c	0.034070374692392796
167	0x3fa7eebf097bc4de	0.04674336424603508
168	0xbfb31f0ce06c4b0a	-0.074692539969231
169	0xbfab6929b803edfd	-0.053536704743205356
170	0xbfa04b7957a77d72	-0.0318258208751513
171	0xbf96f9fd11212956	-0.02243800560999295
172	0xbfa4c96191feec77	-0.040598916122200394
173	0xbf92e3645d713245	-0.0184455568344666
174	0xbfd552ed32e66a56	-0.33318643542012205
175	0xbfd091c3929b25f0	-0.25889672581669654
176	0xbfcd82281856cf7e	-0.23053456486161034
177	0xbfcd3299fc1eeda0	-0.22810673533045378
178	0xbfd02f4534235fbd	-0.25288515178317167
179	0xbfcdce15cdad0916	-0.2328517202641442
180	0x3fdecc5f781df397	0.4812239335076866
181	0x3fdcb1649cb72081	0.4483272104666938
182	0x3fc5e0a2ebff7a5e	0.1709178593000215
183	0xbfd0f2cf1c0322f7	-0.26481988654681693
184	0xbfe092235a2fa3ab	-0.5178391229102223
185	0xbfe266f6798b64a2	-0.5750687002101993
186	0x3fdd930ae3b98d3f	0.46209976423979876
187	0x3fdc88655fd3fcb4	0.4458249507733385
188	0x3fc937db77a70b87	0.19701712934883295
189	0xbfce035e26a11c7d	-0.2344777763957814
190	0xbfde551e645680c9	-0.47394523428557683
191	0xbfe11e50068d5f4f	-0.534950268552146
192	0x3fdd76f72743aa6b	0.46038607439428486
193	0x3fdcf6e497510b4c	0.45256914879808074
194	0x3fcc05574da359f5	0.2189129952518695
195	0xbfcbfe84cc2ca583	-0.21870479554608488
196	0xbfdccd826dd46653	-0.45004330373339946
197	0xbfe06fe72a4f04d1	-0.5136600328770787
198	0x3fddd9d159aac3d8	0.46641954189823087
199	0x3fdda9c957320a1f	0.4634879447477562
200	0x3fced3eff22c614a	0.24084281277533598
201	0xbfc81e6fecabbb49	-0.18842886978333187
202	0xbfdb86eeced927f6	-0.4301106472017858
203	0xbfdff4d8761bbc42	-0.4993191865350505
204	0x3fddebe2f30d3592	0.4675223706770676
205	0x3fddcfdf1096729f	0.4658124601353765
206	0x3fcfedce1bccd269	0.2494447360746961
207	0xbfc4d3218db890ca	-0.16269320888489452
208	0xbfda308001be9c68	-0.4092102067028862
209	0xbfdedac30b9bb3da	-0.4821021664964157
210	0x3fdf5ea174c9716b	0.4901507988449995
211	0x3fdf3c5fb3139426	0.4880599259179824
212	0x3fd1323609a17fd6	0.2686896413852059
213	0xbfc0a837edd7f9e9	-0.13013362039050883
214	0xbfd8cee391f3bca8	-0.3876274991334392
215	0xbfddbb97d3730146	-0.46457477235164324
216	0xbfcca5f753dd57ff	-0.2238148841376528
217	0xbfd35e030acabc58	-0.3026130299940113
218	0xbfd5b2b41b6107f8	-0.339032198655445
219	0xbfd56c5d6f669f83	-0.33473907355300286
220	0xbfd41eb9985f01f4	-0.3143753040313009
221	0xbfce114cdf496291	-0.2349029627100845
222	0xbfb09b772bcf7e3b	-0.06487221545784731
223	0xbfb954ee94c92e4a	-0.09895220882861469
224	0xbfba8a1a72384756	-0.10366978920526768
225	0xbfb6aa2ac7d16816	-0.08853404405945783
226	0xbfb77a5a30ae3af8	-0.09171069801798726
227	0xbfa992a7dc0d29ab	-0.04994701920675778
228	0x3f876f019d9c28a9	0.01144219648587737
229	0x3f824d6d65157c51	0.008936743399941134
230	0x3f97468d0a820010	0.022730067983957325
231	0x3faaefe69dc01a0b	0.0526115481916812
232	0x3fa3af6d6ec6eafd	0.03844778039225181
233	0x3fb156e7af11cb87	0.06773231529386524
234	0x3fab4c61fc3dd2cf	0.053317129174421767
235	0x3fb208298eabad7d	0.07043704732102714
236	0x3fb852a5cf4fb9c4	0.09501110373796623
237	0x3fbe6b71df0fcf08	0.1188269776901586
238	0x3fbba0ab66d1bb66	0.10792037258373241
239	0x3fbff0a1c717bcf9	0.12476550207769667
240	0x3fb0b3f46f02f547	0.06524589262240453
241	0x3fb78a0347fb5a02	0.09194965846413797
242	0x3fbd3d5059ab251f	0.11421682538197729
243	0x3fc179c41891cf07	0.13652850341497233
244	0x3fc0726eb958d57f	0.1284922032370268
245	0x3fc2fc330a04d4e9	0.14832151402666874
246	0x3fb6aff22b285074	0.08862222245835644
247	0x3fbd909ea47a7388	0.11548797145446887
248	0x3fc14d1e56189c60	0.1351659698859491
249	0x3fc2fff4a018b39e	0.14843614403926336
250	0x3fc1b14af8db64d2	0.13822304869862606
251	0x3fc5079bbfe30496	0.16429468984100443
252	0xbfe2533221d3fa9b	-0.5726557408050498
253	0xbfdc92ec8c84aed9	-0.44646753046502635
254	0xbfbc9f96e0c4902e	-0.11181014049049118
255	0x3fcde61fa1f28583	0.23358531386933742
